…
Reading sentimentless file /root/school/ece5268/NN-text-classification/src/../sentiment_lacking_sentences/sentimentless_sentences.txt into memory..
Building keras Sequential model with length of input: 16, labels length: 2
2020-04-27 20:53:14.374391: E tensorflow/stream_executor/cuda/cuda_driver.cc:351] failed call to cuInit: CUDA_ERROR_NO_DEVICE: no CUDA-capable device is detected
Model: "sequential"
_________________________________________________________________
Layer (type)                 Output Shape              Param #
=================================================================
embedding (Embedding)        (None, 16, 512)           1024000
_________________________________________________________________
dropout (Dropout)            (None, 16, 512)           0
_________________________________________________________________
conv1d (Conv1D)              (None, 14, 512)           786944
_________________________________________________________________
global_max_pooling1d (Global (None, 512)               0
_________________________________________________________________
dropout_1 (Dropout)          (None, 512)               0
_________________________________________________________________
dense (Dense)                (None, 256)               131328
_________________________________________________________________
dense_1 (Dense)              (None, 2)                 514
=================================================================
Total params: 1,942,786
Trainable params: 1,942,786
Non-trainable params: 0
_________________________________________________________________
Train on 1920 samples, validate on 480 samples
Epoch 1/30
1920/1920 [==============================] - 2s 1ms/sample - loss: 0.6878 - accuracy: 0.5380 - val_loss: 0.6712 - val_accuracy: 0.6135
…
