…
Reading review file sentiment_labelled_sentences/yelp_labelled.txt into memory..

reviews list shape   : (3000, 477)
sentiments list shape: (3000, 2)
categories list shape: (3000, 3)

Building sentiment model.
Building keras Sequential model with length of input: 477, labels length: 2
Model: "model"
_________________________________________________________________
Layer (type)                 Output Shape              Param #
=================================================================
input_1 (InputLayer)         [(None, 477)]             0
_________________________________________________________________
embedding (Embedding)        (None, 477, 128)          1280000
_________________________________________________________________
conv1d (Conv1D)              (None, 473, 128)          82048
_________________________________________________________________
max_pooling1d (MaxPooling1D) (None, 94, 128)           0
_________________________________________________________________
conv1d_1 (Conv1D)            (None, 90, 128)           82048
_________________________________________________________________
max_pooling1d_1 (MaxPooling1 (None, 18, 128)           0
_________________________________________________________________
conv1d_2 (Conv1D)            (None, 14, 128)           82048
_________________________________________________________________
lstm (LSTM)                  (None, 64)                49408
_________________________________________________________________
tf_op_layer_ExpandDims (Tens [(None, 64, 1)]           0
_________________________________________________________________
max_pooling1d_2 (MaxPooling1 (None, 2, 1)              0
_________________________________________________________________
flatten (Flatten)            (None, 2)                 0
_________________________________________________________________
dense (Dense)                (None, 128)               384
_________________________________________________________________
dense_1 (Dense)              (None, 2)                 258
=================================================================
Total params: 1,576,194
Trainable params: 1,576,194
Non-trainable params: 0
_________________________________________________________________
Train on 2400 samples, validate on 600 samples
Epoch 1/50
2400/2400 - 7s - loss: 0.6933 - accuracy: 0.5108 - val_loss: 0.6940 - val_accuracy: 0.4617
Epoch 2/50
2400/2400 - 5s - loss: 0.6931 - accuracy: 0.5096 - val_loss: 0.6946 - val_accuracy: 0.4617
…
2400/2400 - 5s - loss: 0.1076 - accuracy: 0.9367 - val_loss: 1.3474 - val_accuracy: 0.6717

Saved model to ./models/sentiment_model.h5

Building category model.
Building keras Sequential model with length of input: 477, labels length: 3
Model: "model_1"
_________________________________________________________________
Layer (type)                 Output Shape              Param #
=================================================================
input_2 (InputLayer)         [(None, 477)]             0
_________________________________________________________________
embedding_1 (Embedding)      (None, 477, 128)          1280000
_________________________________________________________________
conv1d_3 (Conv1D)            (None, 473, 128)          82048
_________________________________________________________________
max_pooling1d_3 (MaxPooling1 (None, 94, 128)           0
_________________________________________________________________
conv1d_4 (Conv1D)            (None, 90, 128)           82048
_________________________________________________________________
max_pooling1d_4 (MaxPooling1 (None, 18, 128)           0
_________________________________________________________________
conv1d_5 (Conv1D)            (None, 14, 128)           82048
_________________________________________________________________
lstm_1 (LSTM)                (None, 64)                49408
_________________________________________________________________
tf_op_layer_ExpandDims_1 (Te [(None, 64, 1)]           0
_________________________________________________________________
max_pooling1d_5 (MaxPooling1 (None, 2, 1)              0
_________________________________________________________________
flatten_1 (Flatten)          (None, 2)                 0
_________________________________________________________________
dense_2 (Dense)              (None, 128)               384
_________________________________________________________________
dense_3 (Dense)              (None, 3)                 387
=================================================================
Total params: 1,576,323
Trainable params: 1,576,323
Non-trainable params: 0
_________________________________________________________________
Train on 2400 samples, validate on 600 samples
Epoch 1/50
2400/2400 - 7s - loss: 1.0992 - accuracy: 0.3258 - val_loss: 1.0986 - val_accuracy: 0.3317
Epoch 2/50
2400/2400 - 5s - loss: 1.0982 - accuracy: 0.3583 - val_loss: 1.0963 - val_accuracy: 0.4083
…
