…
Reading review file sentiment_labelled_sentences/yelp_labelled.txt into memory..

reviews list shape   : (3000, 17)
sentiments list shape: (3000, 2)
categories list shape: (3000, 3)

Building sentiment model.
Building keras Sequential model with length of input: 17, labels length: 2
Model: "model"
_________________________________________________________________
Layer (type)                 Output Shape              Param #
=================================================================
input_1 (InputLayer)         [(None, 17)]              0
_________________________________________________________________
embedding (Embedding)        (None, 17, 128)           1280000
_________________________________________________________________
conv1d (Conv1D)              (None, 17, 128)           16512
_________________________________________________________________
max_pooling1d (MaxPooling1D) (None, 17, 128)           0
_________________________________________________________________
conv1d_1 (Conv1D)            (None, 17, 128)           16512
_________________________________________________________________
max_pooling1d_1 (MaxPooling1 (None, 17, 128)           0
_________________________________________________________________
conv1d_2 (Conv1D)            (None, 17, 128)           16512
_________________________________________________________________
lstm (LSTM)                  (None, 64)                49408
_________________________________________________________________
tf_op_layer_ExpandDims (Tens [(None, 64, 1)]           0
_________________________________________________________________
max_pooling1d_2 (MaxPooling1 (None, 2, 1)              0
_________________________________________________________________
flatten (Flatten)            (None, 2)                 0
_________________________________________________________________
dense (Dense)                (None, 128)               384
_________________________________________________________________
dense_1 (Dense)              (None, 2)                 258
=================================================================
Total params: 1,379,586
Trainable params: 1,379,586
Non-trainable params: 0
_________________________________________________________________
Train on 1920 samples, validate on 480 samples
Epoch 1/25
1920/1920 [==============================] - 3s 1ms/sample - loss: 0.6935 - accuracy: 0.5005 - val_loss: 0.6930 - val_accuracy: 0.5063
…
1920/1920 [==============================] - 1s 272us/sample - loss: 0.0111 - accuracy: 0.9969 - val_loss: 1.1919 - val_accuracy: 0.7542

Sentiment model accuracy: 76.00%

Saved model to ./models/sentiment_model.h5

Building category model.
Building keras Sequential model with length of input: 17, labels length: 3
Model: "model_1"
_________________________________________________________________
Layer (type)                 Output Shape              Param #
=================================================================
input_2 (InputLayer)         [(None, 17)]              0
_________________________________________________________________
embedding_1 (Embedding)      (None, 17, 128)           1280000
_________________________________________________________________
conv1d_3 (Conv1D)            (None, 17, 128)           16512
_________________________________________________________________
max_pooling1d_3 (MaxPooling1 (None, 17, 128)           0
_________________________________________________________________
conv1d_4 (Conv1D)            (None, 17, 128)           16512
_________________________________________________________________
max_pooling1d_4 (MaxPooling1 (None, 17, 128)           0
_________________________________________________________________
conv1d_5 (Conv1D)            (None, 17, 128)           16512
_________________________________________________________________
lstm_1 (LSTM)                (None, 64)                49408
_________________________________________________________________
tf_op_layer_ExpandDims_1 (Te [(None, 64, 1)]           0
_________________________________________________________________
max_pooling1d_5 (MaxPooling1 (None, 2, 1)              0
_________________________________________________________________
flatten_1 (Flatten)          (None, 2)                 0
_________________________________________________________________
dense_2 (Dense)              (None, 128)               384
_________________________________________________________________
dense_3 (Dense)              (None, 3)                 387
=================================================================
Total params: 1,379,715
Trainable params: 1,379,715
Non-trainable params: 0
_________________________________________________________________
Train on 1920 samples, validate on 480 samples
Epoch 1/25
1920/1920 [==============================] - 2s 1ms/sample - loss: 1.0984 - accuracy: 0.3406 - val_loss: 1.0993 - val_accuracy: 0.2854
…
